…
odel and put it on the GPU\n\nengineered_model = EngineeredModel(8, 22).to(device)\n\nOnce again, lets use summary to get a glimpse of our model. This is a much simpler model, with just over 1000 parameters.\n\nINPUT_SHAPE = (1,72)\nsummary(engineered_model, INPUT_SHAPE, dtypes=[torch.float32])\n\n==========================================================================================\nLayer (type:depth-idx)                   Output Shape              Param #\n==========================================================================================\nEngineeredModel                          [1, 8]                    --\n├─Linear: 1-1                            [1, 19]                   437\n├─Linear: 1-2                            [1, 15]                   300\n├─Linear: 1-3                            [1, 11]                   176\n├─Linear: 1-4                            [1, 8]                    96\n==========================================================================================\nTotal params: 1,009\nTrainable params: 1,009\nNon-trainable params: 0\nTotal mult-adds (M): 0.00\n==========================================================================================\nInput size (MB): 0.00\nForward/backward pass size (MB): 0.00\nParams size (MB): 0.00\nEstimated Total Size (MB): 0.0
…
edding_dim, and max_len as before.\n\ncombined_model = CombinedModel(8, 22, vocab_size, embedding_dim, max_len).to(device)\n\nLets get a summary. This is our biggest model yet!\n\nfrom torchinfo import summary\n\nINPUT_SHAPE = (1,72)\nsummary(combined_model, INPUT_SHAPE, dtypes=[torch.float32])\n\n==========================================================================================\nLayer (type:depth-idx)                   Output Shape              Param #\n==========================================================================================\nCombinedModel                            [1, 8]                    --\n├─Embedding: 1-1                         [1, 50, 100]              442,500\n├─Dropout: 1-2                           [1, 50, 100]              --\n├─Linear: 1-3                            [1, 8]                    184\n├─Dropout: 1-4                           [1, 8]                    --\n├─Linear: 1-5                            [1, 16]                   80,144\n├─Dropout: 1-6                           [1, 16]                   --\n├─Linear: 1-7                            [1, 8]                    136\n==========================================================================================\nTotal params: 522,964\nTrainable params: 522,964\nNon-trainable params: 0\nTotal mult-adds (M): 0.52\n==========================================================================================\nInput size (MB): 0.00\nForward/backward pass size (MB): 0.04\nParams size (MB): 2.09\nEstimated Total Size (MB):
…
